…
I0731 01:54:27.299537  4246 net.cpp:323] The NetState phase (0) differed from the phase (1) specified by a rule in layer val-data
I0731 01:54:27.299547  4246 net.cpp:323] The NetState phase (0) differed from the phase (1) specified by a rule in layer accuracy
I0731 01:54:27.299633  4246 net.cpp:52] Initializing net from parameters:
state {
phase: TRAIN
}
layer {
name: "train-data"
type: "Data"
top: "data"
top: "label"
include {
phase: TRAIN
}
transform_param {
mean_value: 163.93678
}
data_param {
source: "/home/samhong/digits/digits/jobs/20220731-015303-bc6f/train_db"
batch_size: 32
backend: LMDB
}
}
layer {
name: "scale"
type: "Power"
bottom: "data"
top: "scaled"
power_param {
scale: 0.0125
}
}
layer {
name: "conv1"
type: "Convolution"
bottom: "scaled"
top: "conv1"
param {
lr_mult: 1
}
param {
lr_mult: 2
}
convolution_param {
num_output: 20
kernel_size: 5
stride: 1
weight_filler {
type: "xavier"
}
bias_filler {
type: "constant"
}
}
}
layer {
name: "pool1"
type: "Pooling"
bottom: "conv1"
top: "pool1"
pooling_param {
pool: MAX
kernel_size: 2
stride: 2
}
}
layer {
name: "conv2"
type: "Convolution"
bottom: "pool1"
top: "conv2"
param {
lr_mult: 1
}
param {
lr_mult: 2
}
convolution_param {
num_output: 50
kernel_size: 5
stride: 1
weight_filler {
type: "xavier"
}
bias_filler {
type: "constant"
}
}
}
layer {
name: "pool2"
type: "Pooling"
bottom: "conv2"
top: "pool2"
pooling_param {
pool: MAX
kernel_size: 2
stride: 2
}
}
layer {
name: "ip1"
type: "InnerProduct"
bottom: "pool2"
top: "ip1"
param {
lr_mult: 1
}
param {
lr_mult: 2
}
inner_product_param {
num_output: 500
weight_filler {
type: "xavier"
}
bias_filler {
type: "constant"
}
}
}
layer {
name: "relu1"
type: "ReLU"
bottom: "ip1"
top: "ip1"
}
layer {
name: "ip2"
type: "InnerProduct"
bottom: "ip1"
top: "ip2"
param {
lr_mult: 1
}
param {
lr_mult: 2
}
inner_product_param {
num_output: 4
weight_filler {
type: "xavier"
}
bias_filler {
type: "constant"
}
}
}
layer {
name: "loss"
type: "SoftmaxWithLoss"
bottom: "ip2"
bottom: "label"
top: "loss"
}
I0731 01:54:27.299674  4246 layer_factory.hpp:77] Creating layer train-data
I0731 01:54:27.300129  4246 net.cpp:94] Creating Layer train-data
I0731 01:54:27.300153  4246 net.cpp:409] train-data -> data
I0731 01:54:27.300190  4246 net.cpp:409] train-data -> label
I0731 01:54:27.300638  4251 db_lmdb.cpp:35] Opened lmdb /home/samhong/digits/digits/jobs/20220731-015303-bc6f/train_db
I0731 01:54:27.301508  4246 data_layer.cpp:78] ReshapePrefetch 32, 1, 28, 100
I0731 01:54:27.301543  4246 data_layer.cpp:83] output data size: 32,1,28,100
I0731 01:54:27.301972  4246 net.cpp:144] Setting up train-data
I0731 01:54:27.301982  4246 net.cpp:151] Top shape: 32 1 28 100 (89600)
I0731 01:54:27.301986  4246 net.cpp:151] Top shape: 32 (32)
I0731 01:54:27.301990  4246 net.cpp:159] Memory required for data: 358528
I0731 01:54:27.301996  4246 layer_factory.hpp:77] Creating layer scale
I0731 01:54:27.302019  4246 net.cpp:94] Creating Layer scale
I0731 01:54:27.302024  4246 net.cpp:435] scale <- data
I0731 01:54:27.302033  4246 net.cpp:409] scale -> scaled
I0731 01:54:27.302068  4246 net.cpp:144] Setting up scale
I0731 01:54:27.302074  4246 net.cpp:151] Top shape: 32 1 28 100 (89600)
I0731 01:54:27.302078  4246 net.cpp:159] Memory required for data: 716928
I0731 01:54:27.302080  4246 layer_factory.hpp:77] Creating layer conv1
I0731 01:54:27.302093  4246 net.cpp:94] Creating Layer conv1
I0731 01:54:27.302096  4246 net.cpp:435] conv1 <- scaled
I0731 01:54:27.302101  4246 net.cpp:409] conv1 -> conv1
I0731 01:54:27.302269  4246 net.cpp:144] Setting up conv1
I0731 01:54:27.302278  4246 net.cpp:151] Top shape: 32 20 24 96 (1474560)
I0731 01:54:27.302280  4246 net.cpp:159] Memory required for data: 6615168
I0731 01:54:27.302291  4246 layer_factory.hpp:77] Creating layer pool1
I0731 01:54:27.302296  4246 net.cpp:94] Creating Layer pool1
I0731 01:54:27.302301  4246 net.cpp:435] pool1 <- conv1
I0731 01:54:27.302305  4246 net.cpp:409] pool1 -> pool1
I0731 01:54:27.302326  4246 net.cpp:144] Setting up pool1
I0731 01:54:27.302331  4246 net.cpp:151] Top shape: 32 20 12 48 (368640)
I0731 01:54:27.302335  4246 net.cpp:159] Memory required for data: 8089728
I0731 01:54:27.302340  4246 layer_factory.hpp:77] Creating layer conv2
I0731 01:54:27.302347  4246 net.cpp:94] Creating Layer conv2
I0731 01:54:27.302351  4246 net.cpp:435] conv2 <- pool1
I0731 01:54:27.302358  4246 net.cpp:409] conv2 -> conv2
I0731 01:54:27.302618  4246 net.cpp:144] Setting up conv2
I0731 01:54:27.302623  4246 net.cpp:151] Top shape: 32 50 8 44 (563200)
I0731 01:54:27.302626  4246 net.cpp:159] Memory required for data: 10342528
I0731 01:54:27.302634  4246 layer_factory.hpp:77] Creating layer pool2
I0731 01:54:27.302637  4246 net.cpp:94] Creating Layer pool2
I0731 01:54:27.302641  4246 net.cpp:435] pool2 <- conv2
I0731 01:54:27.302645  4246 net.cpp:409] pool2 -> pool2
I0731 01:54:27.302667  4246 net.cpp:144] Setting up pool2
I0731 01:54:27.302672  4246 net.cpp:151] Top shape: 32 50 4 22 (140800)
I0731 01:54:27.302675  4246 net.cpp:159] Memory required for data: 10905728
I0731 01:54:27.302677  4246 layer_factory.hpp:77] Creating layer ip1
I0731 01:54:27.302683  4246 net.cpp:94] Creating Layer ip1
I0731 01:54:27.302688  4246 net.cpp:435] ip1 <- pool2
I0731 01:54:27.302692  4246 net.cpp:409] ip1 -> ip1
I0731 01:54:27.314677  4246 net.cpp:144] Setting up ip1
I0731 01:54:27.314692  4246 net.cpp:151] Top shape: 32 500 (16000)
I0731 01:54:27.314697  4246 net.cpp:159] Memory required for data: 10969728
I0731 01:54:27.314705  4246 layer_factory.hpp:77] Creating layer relu1
I0731 01:54:27.314731  4246 net.cpp:94] Creating Layer relu1
I0731 01:54:27.314734  4246 net.cpp:435] relu1 <- ip1
I0731 01:54:27.314740  4246 net.cpp:396] relu1 -> ip1 (in-place)
I0731 01:54:27.314754  4246 net.cpp:144] Setting up relu1
I0731 01:54:27.314757  4246 net.cpp:151] Top shape: 32 500 (16000)
I0731 01:54:27.314760  4246 net.cpp:159] Memory required for data: 11033728
I0731 01:54:27.314764  4246 layer_factory.hpp:77] Creating layer ip2
I0731 01:54:27.314770  4246 net.cpp:94] Creating Layer ip2
I0731 01:54:27.314774  4246 net.cpp:435] ip2 <- ip1
I0731 01:54:27.314777  4246 net.cpp:409] ip2 -> ip2
I0731 01:54:27.314834  4246 net.cpp:144] Setting up ip2
I0731 01:54:27.314839  4246 net.cpp:151] Top shape: 32 4 (128)
I0731 01:54:27.314842  4246 net.cpp:159] Memory required for data: 11034240
I0731 01:54:27.314846  4246 layer_factory.hpp:77] Creating layer loss
I0731 01:54:27.314852  4246 net.cpp:94] Creating Layer loss
I0731 01:54:27.314855  4246 net.cpp:435] loss <- ip2
I0731 01:54:27.314858  4246 net.cpp:435] loss <- label
I0731 01:54:27.314863  4246 net.cpp:409] loss -> loss
I0731 01:54:27.314870  4246 layer_factory.hpp:77] Creating layer loss
…
I0731 01:54:27.315119  4246 solver.cpp:181] Creating test net (#0) specified by net file: train_val.prototxt
I0731 01:54:27.315136  4246 net.cpp:323] The NetState phase (1) differed from the phase (0) specified by a rule in layer train-data
I0731 01:54:27.315201  4246 net.cpp:52] Initializing net from parameters:
state {
phase: TEST
}
layer {
name: "val-data"
type: "Data"
top: "data"
top: "label"
include {
phase: TEST
}
transform_param {
mean_value: 163.93678
}
data_param {
source: "/home/samhong/digits/digits/jobs/20220731-015303-bc6f/val_db"
batch_size: 32
backend: LMDB
}
}
layer {
name: "scale"
type: "Power"
bottom: "data"
top: "scaled"
power_param {
scale: 0.0125
}
}
layer {
name: "conv1"
type: "Convolution"
bottom: "scaled"
top: "conv1"
param {
lr_mult: 1
}
param {
lr_mult: 2
}
convolution_param {
num_output: 20
kernel_size: 5
stride: 1
weight_filler {
type: "xavier"
}
bias_filler {
type: "constant"
}
}
}
layer {
name: "pool1"
type: "Pooling"
bottom: "conv1"
top: "pool1"
pooling_param {
pool: MAX
kernel_size: 2
stride: 2
}
}
layer {
name: "conv2"
type: "Convolution"
bottom: "pool1"
top: "conv2"
param {
lr_mult: 1
}
param {
lr_mult: 2
}
convolution_param {
num_output: 50
kernel_size: 5
stride: 1
weight_filler {
type: "xavier"
}
bias_filler {
type: "constant"
}
}
}
layer {
name: "pool2"
type: "Pooling"
bottom: "conv2"
top: "pool2"
pooling_param {
pool: MAX
kernel_size: 2
stride: 2
}
}
layer {
name: "ip1"
type: "InnerProduct"
bottom: "pool2"
top: "ip1"
param {
lr_mult: 1
}
param {
lr_mult: 2
}
inner_product_param {
num_output: 500
weight_filler {
type: "xavier"
}
bias_filler {
type: "constant"
}
}
}
layer {
name: "relu1"
type: "ReLU"
bottom: "ip1"
top: "ip1"
}
layer {
name: "ip2"
type: "InnerProduct"
bottom: "ip1"
top: "ip2"
param {
lr_mult: 1
}
param {
lr_mult: 2
}
inner_product_param {
num_output: 4
weight_filler {
type: "xavier"
}
bias_filler {
type: "constant"
}
}
}
layer {
name: "accuracy"
type: "Accuracy"
bottom: "ip2"
bottom: "label"
top: "accuracy"
include {
phase: TEST
}
}
layer {
name: "loss"
type: "SoftmaxWithLoss"
bottom: "ip2"
bottom: "label"
top: "loss"
}
I0731 01:54:27.315244  4246 layer_factory.hpp:77] Creating layer val-data
I0731 01:54:27.315589  4246 net.cpp:94] Creating Layer val-data
I0731 01:54:27.315603  4246 net.cpp:409] val-data -> data
I0731 01:54:27.315613  4246 net.cpp:409] val-data -> label
I0731 01:54:27.316004  4257 db_lmdb.cpp:35] Opened lmdb /home/samhong/digits/digits/jobs/20220731-015303-bc6f/val_db
I0731 01:54:27.316193  4246 data_layer.cpp:78] ReshapePrefetch 32, 1, 28, 100
I0731 01:54:27.316217  4246 data_layer.cpp:83] output data size: 32,1,28,100
I0731 01:54:27.317057  4246 net.cpp:144] Setting up val-data
I0731 01:54:27.317070  4246 net.cpp:151] Top shape: 32 1 28 100 (89600)
I0731 01:54:27.317085  4246 net.cpp:151] Top shape: 32 (32)
I0731 01:54:27.317088  4246 net.cpp:159] Memory required for data: 358528
I0731 01:54:27.317093  4246 layer_factory.hpp:77] Creating layer label_val-data_1_split
I0731 01:54:27.317101  4246 net.cpp:94] Creating Layer label_val-data_1_split
I0731 01:54:27.317106  4246 net.cpp:435] label_val-data_1_split <- label
I0731 01:54:27.317111  4246 net.cpp:409] label_val-data_1_split -> label_val-data_1_split_0
I0731 01:54:27.317117  4246 net.cpp:409] label_val-data_1_split -> label_val-data_1_split_1
I0731 01:54:27.317170  4246 net.cpp:144] Setting up label_val-data_1_split
I0731 01:54:27.317176  4246 net.cpp:151] Top shape: 32 (32)
I0731 01:54:27.317179  4246 net.cpp:151] Top shape: 32 (32)
I0731 01:54:27.317183  4246 net.cpp:159] Memory required for data: 358784
I0731 01:54:27.317185  4246 layer_factory.hpp:77] Creating layer scale
I0731 01:54:27.317191  4246 net.cpp:94] Creating Layer scale
I0731 01:54:27.317194  4246 net.cpp:435] scale <- data
I0731 01:54:27.317199  4246 net.cpp:409] scale -> scaled
I0731 01:54:27.317214  4246 net.cpp:144] Setting up scale
I0731 01:54:27.317219  4246 net.cpp:151] Top shape: 32 1 28 100 (89600)
I0731 01:54:27.317221  4246 net.cpp:159] Memory required for data: 717184
I0731 01:54:27.317224  4246 layer_factory.hpp:77] Creating layer conv1
I0731 01:54:27.317232  4246 net.cpp:94] Creating Layer conv1
I0731 01:54:27.317235  4246 net.cpp:435] conv1 <- scaled
I0731 01:54:27.317239  4246 net.cpp:409] conv1 -> conv1
I0731 01:54:27.317350  4246 net.cpp:144] Setting up conv1
I0731 01:54:27.317358  4246 net.cpp:151] Top shape: 32 20 24 96 (1474560)
I0731 01:54:27.317363  4246 net.cpp:159] Memory required for data: 6615424
I0731 01:54:27.317373  4246 layer_factory.hpp:77] Creating layer pool1
I0731 01:54:27.317379  4246 net.cpp:94] Creating Layer pool1
I0731 01:54:27.317384  4246 net.cpp:435] pool1 <- conv1
I0731 01:54:27.317389  4246 net.cpp:409] pool1 -> pool1
I0731 01:54:27.317410  4246 net.cpp:144] Setting up pool1
I0731 01:54:27.317416  4246 net.cpp:151] Top shape: 32 20 12 48 (368640)
I0731 01:54:27.317421  4246 net.cpp:159] Memory required for data: 8089984
I0731 01:54:27.317425  4246 layer_factory.hpp:77] Creating layer conv2
I0731 01:54:27.317430  4246 net.cpp:94] Creating Layer conv2
I0731 01:54:27.317433  4246 net.cpp:435] conv2 <- pool1
I0731 01:54:27.317438  4246 net.cpp:409] conv2 -> conv2
I0731 01:54:27.317771  4246 net.cpp:144] Setting up conv2
I0731 01:54:27.317777  4246 net.cpp:151] Top shape: 32 50 8 44 (563200)
I0731 01:54:27.317780  4246 net.cpp:159] Memory required for data: 10342784
I0731 01:54:27.317787  4246 layer_factory.hpp:77] Creating layer pool2
I0731 01:54:27.317792  4246 net.cpp:94] Creating Layer pool2
I0731 01:54:27.317795  4246 net.cpp:435] pool2 <- conv2
I0731 01:54:27.317799  4246 net.cpp:409] pool2 -> pool2
I0731 01:54:27.317840  4246 net.cpp:144] Setting up pool2
I0731 01:54:27.317859  4246 net.cpp:151] Top shape: 32 50 4 22 (140800)
I0731 01:54:27.317862  4246 net.cpp:159] Memory required for data: 10905984
I0731 01:54:27.317865  4246 layer_factory.hpp:77] Creating layer ip1
I0731 01:54:27.317884  4246 net.cpp:94] Creating Layer ip1
I0731 01:54:27.317888  4246 net.cpp:435] ip1 <- pool2
I0731 01:54:27.317906  4246 net.cpp:409] ip1 -> ip1
I0731 01:54:27.330588  4246 net.cpp:144] Setting up ip1
I0731 01:54:27.330605  4246 net.cpp:151] Top shape: 32 500 (16000)
I0731 01:54:27.330607  4246 net.cpp:159] Memory required for data: 10969984
I0731 01:54:27.330617  4246 layer_factory.hpp:77] Creating layer relu1
I0731 01:54:27.330626  4246 net.cpp:94] Creating Layer relu1
I0731 01:54:27.330631  4246 net.cpp:435] relu1 <- ip1
I0731 01:54:27.330636  4246 net.cpp:396] relu1 -> ip1 (in-place)
I0731 01:54:27.330644  4246 net.cpp:144] Setting up relu1
I0731 01:54:27.330647  4246 net.cpp:151] Top shape: 32 500 (16000)
I0731 01:54:27.330651  4246 net.cpp:159] Memory required for data: 11033984
I0731 01:54:27.330654  4246 layer_factory.hpp:77] Creating layer ip2
I0731 01:54:27.330659  4246 net.cpp:94] Creating Layer ip2
I0731 01:54:27.330678  4246 net.cpp:435] ip2 <- ip1
I0731 01:54:27.330683  4246 net.cpp:409] ip2 -> ip2
I0731 01:54:27.330742  4246 net.cpp:144] Setting up ip2
I0731 01:54:27.330747  4246 net.cpp:151] Top shape: 32 4 (128)
I0731 01:54:27.330749  4246 net.cpp:159] Memory required for data: 11034496
I0731 01:54:27.330755  4246 layer_factory.hpp:77] Creating layer ip2_ip2_0_split
I0731 01:54:27.330761  4246 net.cpp:94] Creating Layer ip2_ip2_0_split
I0731 01:54:27.330765  4246 net.cpp:435] ip2_ip2_0_split <- ip2
I0731 01:54:27.330768  4246 net.cpp:409] ip2_ip2_0_split -> ip2_ip2_0_split_0
I0731 01:54:27.330773  4246 net.cpp:409] ip2_ip2_0_split -> ip2_ip2_0_split_1
I0731 01:54:27.330791  4246 net.cpp:144] Setting up ip2_ip2_0_split
I0731 01:54:27.330796  4246 net.cpp:151] Top shape: 32 4 (128)
I0731 01:54:27.330798  4246 net.cpp:151] Top shape: 32 4 (128)
I0731 01:54:27.330801  4246 net.cpp:159] Memory required for data: 11035520
I0731 01:54:27.330804  4246 layer_factory.hpp:77] Creating layer accuracy
I0731 01:54:27.330809  4246 net.cpp:94] Creating Layer accuracy
I0731 01:54:27.330812  4246 net.cpp:435] accuracy <- ip2_ip2_0_split_0
I0731 01:54:27.330817  4246 net.cpp:435] accuracy <- label_val-data_1_split_0
I0731 01:54:27.330821  4246 net.cpp:409] accuracy -> accuracy
…
